PyTorch_DL_ChatBot/lightning_logs/version_0/checkpoints/epoch=999-step=15000.ckpt (torch, 5067 bytes, 3 tensors)

linear.weight f4 [1, 13]
0	0x3f984d39	1.1898566
1	0x3fab3604	1.3375859
2	0x3fcb5c09	1.5887462
3	0x3f9fd716	1.2487514
4	0x3fccba4e	1.5994356
5	0x3fb99a31	1.450018
6	0x3fa30d6c	1.2738471
7	0x3f9871e8	1.1909761
8	0x3fb162bb	1.3858255
9	0x3fca1351	1.5787145
10	0x3fa5d252	1.295481
11	0x3fbc9972	1.4734328
12	0x3fbffe0c	1.4999404

exp_avg f4 [1, 13]
0	0xc4681f51	-928.4893
1	0xc5608267	-3592.1501
2	0xc6207b77	-10270.866
3	0xc4dc5046	-1762.5085
4	0xc60d5e88	-9047.633
5	0xc667a65f	-14825.593
6	0xc68ea552	-18258.66
7	0xc5e3b07d	-7286.061
8	0xc60fc186	-9200.381
9	0xc628a2a9	-10792.665
10	0xc68456bd	-16939.37
11	0xc6c6da1e	-25453.059
12	0xc5f8e550	-7964.664

exp_avg_sq f4 [1, 13]
0	0x49844fb9	1.0838951e+06
1	0x4b6e95d2	1.5635922e+07
2	0x4ce0717f	1.1767295e+08
3	0x4aa01589	5.2456365e+06
4	0x4cb263dd	9.3527784e+07
5	0x4d6cccac	2.4830227e+08
6	0x4db2186e	3.734932e+08
7	0x4c635938	5.959805e+07
8	0x4cb99604	9.730051e+07
9	0x4cf96b51	1.30767496e+08
10	0x4d9abb1d	3.2449424e+08
11	0x4e2e5b4f	7.313049e+08
12	0x4c8645ea	7.039778e+07
